saved/saved_model.pkl (torch, 336306 bytes, 11 tensors)

fc1.weight f4 [64, 6]
-0.21004875 0.05883994 0.019052941 0.4148071 -0.0064255823 -0.29118165 0.24113896 0.032382812
-0.039436545 0.42860675 0.11915696 0.0146931205 -0.19504383 0.10765705 -0.30517077 0.07070397
-0.04373534 0.05248967 -0.20194364 -0.39109913 -0.17714527 0.30074912 0.10478005 0.1415056
-0.33526835 0.03344328 -0.11021903 0.11441255 0.28413555 -0.29288313 0.31413773 0.12568577
0.10632787 0.24122137 -0.4431646 -0.12597083 -0.0052155764 0.18956067 0.12212772 -0.07729405
-0.4225836 0.13962351 -0.34916988 -0.2696792 0.14986232 0.041854512 -0.23733963 -0.020292958
-0.31222805 0.109632224 -0.36423507 -0.081216305 0.25552356 -0.12799516 0.15537065 -0.35390174
-0.0753988 0.24093658 -0.37146327 -0.060201496 -0.42150718 0.00086155045 -0.09566007 0.24771006
-0.14963557 0.3773194 0.09781462 -0.28420827 -0.018708998 -0.3402273 -0.14784029 0.23932682
-0.1942039 -0.24613911 0.32381523 -0.2783787 0.1704699 0.40234149 0.077710085 0.1705079
0.43238926 -0.24006173 -0.051231064 -0.15109491 0.20396745 0.14232542 -0.13372216 -0.47317192
-0.16239023 0.13553266 -0.38919577 0.2133488 -0.33464926 -0.02355963 0.3237986 -0.26588255
0.043256693 0.290242 0.32526857 -0.41503352 0.29691124 0.09706173 -0.10361335 0.09798312
-0.004663646 -0.3857165 -0.31884208 0.19220787 -0.22036499 -0.06125205 0.07478793 -0.073343545
0.20168392 0.3837749 -0.35808042 -0.13143465 -0.32778206 0.18051822 0.35642964 -0.19807622
-0.15263765 0.056494128 -0.4028534 0.03634588 0.07855846 -0.40812445 -0.34956962 -0.24165453
-0.30043522 -0.3975377 -0.27861148 -0.014126703 0.3030023 0.08571631 -0.24687105 -0.11990418
0.16421925 -0.17385817 -0.027002273 -0.3539008 0.24575621 -0.0455458 0.031126954 0.1216435
0.101554215 0.2025106 0.33349824 0.25410485 0.19169019 0.17842159 -0.23487972 0.107614644
-0.46610445 0.23125565 -0.25504422 0.11938313 -0.08556415 -0.24164952 0.07504969 -0.3859657
-0.33975568 0.4062973 0.08583274 -0.25218627 0.4407596 0.36956385 0.06961434 -0.45112726
-0.17232078 -0.45269084 0.0199301 0.06442804 -0.10303401 0.24311279 0.043733016 0.019086089
-0.43429214 0.22413418 0.34231278 -0.10652388 0.22771351 -0.1310413 -0.08555096 0.10894183
-0.15182984 -0.14353041 -0.16472442 0.0001582202 0.4289231 -0.26784372 0.31170562 -0.3976567
-0.28331155 -0.32570347 0.40544674 -0.3631994 0.35432085 0.03127789 0.20695315 0.16291703
0.02813673 -0.484403 0.21737565 -0.17498198 0.11694065 -0.34208184 0.11110945 -0.26628372
0.011503253 0.037236426 0.3989013 -0.42269468 0.15190062 -0.1492287 -0.19911349 -0.2572824
0.08386602 0.274783 -0.3784996 -0.3673337 -0.04220256 0.16981454 0.038751908 0.0424832
-0.3994593 -0.23297934 -0.35916242 -0.3262564 -0.1704092 0.39200914 0.23897807 -0.1956562
-0.08687768 -0.20799044 0.34546483 0.2337109 -0.2410301 -0.239122 0.14536963 -0.15094027
-0.37785938 -0.2771356 -0.098131984 0.2198897 -0.07286203 -0.21036924 -0.46731207 0.36926898
-0.38560334 0.30571494 0.18266921 -0.06269166 -0.27893856 -0.02274856 0.28023428 -0.036194712
00000000: 0517 57be 2602 713d ea14 9c3c 9961 d43e
00000010: b18d d2bb c315 95be 22ed 763e d7a3 043d
00000020: 3788 21bd 5872 db3e 9008 f43d 6abb 703c
00000030: 92b9 47be 4d7b dc3d 583f 9cbe 3ecd 903d
00000040: d423 33bd 69ff 563d 50ca 4ebe 253e c8be
00000050: 9265 35be cafb 993e ec96 d63d d8e6 103e
00000060: 4ba8 abbe d2fb 083d 84ba e1bd 2151 ea3d
00000070: 377a 913e c7f4 95be a9d6 a03e c5b3 003e
00000080: 6dc2 d93d bc02 773e 78e6 e2be 7ffe 00be
00000090: 6de7 aabb 311c 423e 191e fa3d 584c 9ebd
000000a0: e15c d8be 77f9 0e3e 65c6 b2be 6413 8abe
000000b0: 8275 193e a36f 2b3d 2909 73be 6b3d a6bc
000000c0: 5bdc 9fbe dc86 e03d 057d babe bc54 a6bd
000000d0: fcd3 823e 2a11 03be 7c19 1f3e 9c32 b5be
000000e0: b06a 9abd 14b8 763e 6f30 bebe d895 76bd
000000f0: cacf d7be acd9 613a 6de9 c3bd b5a7 7d3e
00000100: 113a 19be 0230 c13e 0853 c83d bf83 91be
00000110: 9d43 99bc 4632 aebe 7263 17be 1712 753e
00000120: 63dd 46be e40b 7cbe 1ccb a53e a787 8ebe
00000130: a98f 2e3e b4ff cd3e 7726 9f3d 9f99 2e3e
00000140: 2062 dd3e bed2 75be aad7 51bd a0b8 1abe
00000150: d8dc 503e c1bd 113e 76ee 08be 9743 f2be
00000160: a049 26be 13c9 0a3e ab44 c7be 1c78 5a3e
00000170: 2657 abbe 2000 c1bc eec8 a53e c221 88be
00000180: ee2d 313d 999a 943e 9a89 a63e 467f d4be
00000190: c004 983e 4dc8 c63d 3c33 d4bd 60ab c83d
000001a0: 80d1 98bb a27c c5be 453f a3be 24d2 443e
000001b0: 5ca7 61be 6ee3 7abd 6a2a 993d 2435 96bd
000001c0: 3b86 4e3e 257e c43e 5156 b7be ce96 06be
000001d0: 0dd3 a7be c5d9 383e f27d b63e 7ed4 4abe
000001e0: 0b4d 1cbe 6366 673d cd42 cebe 6bdf 143d
000001f0: 42e3 a03d b0f5 d0be cafa b2be 4974 77be
00000200: a5d2 99be 108a cbbe 2aa6 8ebe b073 67bc
00000210: 1e23 9b3e 088c af3d c4cb 7cbe 5390 f5bd
00000220: 1729 283e e007 32be df33 ddbc 7c32 b5be
00000230: 84a7 7b3e 3c8e 3abd f4fd fe3c 3a20 f93d
00000240: a8fb cf3d f05e 4f3e 48c0 aa3e 081a 823e
00000250: 6f4a 443e 26b4 363e 4f84 70be 1165 dc3d
00000260: 3ea5 eebe 48ce 6c3e 2895 82be 247f f43d
00000270: 423c afbd f972 77be a7b3 993d 4c9d c5be
00000280: 75f4 adbe 3306 d03e 13c9 af3d 8f1e 81be
00000290: 3eab e13e 7937 bd3e f791 8e3d 27fa e6be
000002a0: dc74 30be 18c7 e7be 7344 a33c d9f2 833d
000002b0: 7f03 d3bd 8ff2 783e 6421 333d 6e5a 9c3c
000002c0: 8a5b debe 6e83 653e 9f43 af3e 3129 dabd
000002d0: bb2d 693e b12f 06be 5735 afbd e51c df3d
000002e0: 4879 1bbe a3f9 12be 85ad 28be e9e7 2539
000002f0: cf9b db3e d022 89be e197 9f3e a999 cbbe
00000300: 360e 91be 9bc2 a6be b796 cf3e 46f5 b9be
00000310: 8b69 b53e 3f1d 003d 87eb 533e b9d3 263e
00000320: 007f e63c ac03 f8be b997 5e3e 7a2e 33be
00000330: 947e ef3d 5a25 afbe 5a8d e33d 5756 88be
00000340: 2478 3c3c 3985 183d cb3c cc3e 706b d8be
00000350: d68b 1b3e 69cf 18be 68e4 4bbe 85ba 83be
00000360: f3c1 ab3d 5bb0 8c3e b3ca c1be 2a13 bcbe
00000370: 97dc 2cbd dde3 2d3e 52ba 1e3d dd02 2e3d
00000380: ee85 ccbe 2392 6ebe 23e4 b7be 140b a7be
00000390: c07f 2ebe 6cb5 c83e abb6 743e 195a 48be
000003a0: edec b1bd 72fb 54be c4e0 b03e e951 6f3e
000003b0: 98d0 76be 66dc 74be c7db 143e 1690 1abe
000003c0: c976 c1be b8e4 8dbe 6cf9 c8bd c42a 613e
000003d0: b038 95bd 096b 57be 8743 efbe d310 bd3e
000003e0: cd6d c5be ab86 9c3e a30d 3b3e 7c64 80bd
000003f0: 09d1 8ebe 305b babc de7a 8f3e e840 14bd

fc1.bias f4 [64]
0.2311555 -0.30271074 0.26863962 0.029863747 0.12221539 0.17563623 -0.11672258 0.33843774
0.31540114 -0.06561765 -0.06058821 0.38693035 -0.16758749 0.009822328 0.29715618 -0.24126534
0.08018427 -0.15619233 -0.36649603 0.23250756 -0.039186206 0.14732835 -0.19377431 0.16492826
-0.22347513 0.41445103 -0.05354957 0.11997386 0.31027249 -0.30448255 0.10807084 0.0953594
-0.030904133 0.35789078 -0.018935652 0.29527608 0.17037386 0.08929641 0.34014702 -0.23119383
-0.36456162 0.29614666 -0.124483496 0.21261053 0.20859069 0.11011151 -0.1451476 0.013416397
0.05151375 -0.23349433 -0.3870006 -0.3597836 0.28321347 -0.18185861 -0.13302791 0.017213872
0.38665134 0.13790733 0.16071805 -0.3724532 -0.33007175 -0.4104636 0.026994264 0.020136552
00000000: 07b4 6c3e e7fc 9abe 228b 893e d1a4 f43c
00000010: 104c fa3d fcd9 333e 3f0c efbd b647 ad3e
00000020: 427c a13e 8c62 86bd 582b 78bd bc1b c63e
00000030: 0e9c 2bbe d4ed 203c db24 983e 430e 77be
00000040: a737 a43d e2f0 1fbe 5ea5 bbbe 7616 6e3e
00000050: b781 20bd 3edd 163e c66c 46be f4e2 283e
00000060: aad6 64be ed32 d43e cb56 5bbd dbb4 f53d
00000070: 09dc 9e3e 23e5 9bbe 3f54 dd3d ca4b c33d
00000080: aa2a fdbc 763d b73e f11e 9bbc 6d2e 973e
00000090: 7c76 2e3e 09e1 b63d c027 ae3e 13be 6cbe
000000a0: d2a7 babe 89a0 973e 34f1 febd 93b6 593e
000000b0: cc98 553e 2582 e13d 93a1 14be 73d0 5b3c
000000c0: 1500 533d 2319 6fbe f124 c6be 8e35 b8be
000000d0: 5b01 913e 2539 3abe 7838 08be 1b04 8d3c
000000e0: 2af7 c53e 9437 0d3e 4693 243e 30b2 bebe
000000f0: 2aff a8be 4928 d2be 1323 dd3c 69f5 a43c

fc2.weight f4 [128, 64]
0.014764915 -0.09217918 -0.010364811 0.02734103 -0.06608146 0.057671458 0.18374713 0.05573899
0.07999837 0.04361148 -0.0037892202 0.09683718 -0.020564372 0.16740796 -0.08350467 -0.10816148
0.07746246 0.07179703 0.054593507 0.013581271 -0.09096559 0.13260053 -0.0046805907 -0.1301516
-0.08062243 0.06432758 0.10295958 -0.062106818 -0.10518039 -0.08254843 -0.068333425 0.100885525
-0.008352059 -0.034844074 0.0013211127 0.10173336 0.04992867 0.09849061 0.057013407 -0.046705812
-0.071746275 -0.013296449 0.003187254 0.04081173 0.12148666 0.021426674 0.05197588 -0.044673193
0.014614195 -0.07913814 -0.032474138 -0.0830334 -0.010972714 -0.119640104 -0.04378103 0.15746377
0.032403808 -0.015987156 0.007305683 -0.041781228 0.0028770645 0.030153695 0.016583957 -0.13496563
-0.06289749 -0.04996044 0.012650607 0.18059169 0.041264407 -0.04394008 0.124408625 -0.055505116
0.06510867 0.035082594 0.10615682 0.10363167 0.072985336 -0.06804762 0.0027293684 -0.0072333664
0.01120483 -0.06034614 -0.08462461 0.16104262 -0.11622704 0.024930758 0.089229986 0.034323886
-0.12928693 0.23667516 0.043893684 -0.0009543762 0.008726541 0.013760348 -0.022783885 -0.15937854
0.13584296 0.090761006 0.1653767 0.038290005 -0.040173918 0.09758189 0.038312685 0.11983978
-0.06312211 -0.04348892 -0.08427487 0.06953818 -0.015373279 0.11473309 0.043617602 0.07424407
0.17655787 -0.13460639 -0.15005353 0.012577429 -0.043168046 -0.043301277 0.059316326 0.09305834
0.111703254 -0.09486714 -0.038579952 0.06403112 -0.07293433 -0.07286251 -0.03858344 -0.09388547
0.012590015 0.10532624 -0.043045532 0.098547705 0.04663981 -0.101025976 -0.13809218 0.13720334
0.13232912 -0.05820431 -0.049471885 0.10971595 0.10780715 -0.017912956 0.040223733 -0.08888295
-0.05133822 -0.04791227 -0.0049045924 0.016760329 0.0077712084 -0.08898713 -0.015166896 0.08757972
0.0062734797 0.1482327 0.100156225 -0.021456115 0.15644088 0.04556734 -0.014373216 -0.029111976
0.016822355 -0.019846926 0.03659291 -0.022551514 -0.012381446 -0.014362252 -0.13692094 0.102151595
-0.02271378 0.05159829 -0.119825125 0.041970327 0.04633032 -0.019756828 0.07332453 0.13198334
-0.027682876 0.035681993 -0.031287137 -0.030821532 0.064276345 0.093288474 -0.002443012 0.25052732
0.14897254 -0.047759067 -0.007591631 -0.12866062 0.1142192 -0.108838454 0.07389116 -0.14577843
0.038017623 -0.112007484 -0.0005075007 -0.10363729 -0.16998714 0.03263357 0.039842296 0.033089418
-0.057527494 0.03341362 0.00079363986 0.074796245 -0.0020086644 0.044538554 0.071254045 -0.04234375
-0.1150281 -0.055291623 -0.102626815 0.10075921 0.108230144 -0.0968845 0.09275931 0.050948363
-0.049255647 0.119568795 -0.043056678 -0.09048611 -0.10524453 0.042995267 -0.023293441 0.07716053
0.14105554 -0.053862043 -0.056355327 0.004172004 0.035292327 0.10247578 0.14070784 0.1367326
-0.12340197 -0.056150146 -0.009821355 -0.050263923 0.1424036 -0.051370375 0.020278031 -0.033660624
0.12771854 -0.14032862 -0.03980121 -0.123956025 -0.011820776 -0.0820132 -0.047885593 -0.03934382
0.2385079 0.012634281 -0.10032977 -0.056488104 -0.058157243 -0.044393577 -0.090512216 0.03312938
00000000: 8be8 713c 70c8 bcbd 2bd1 29bc 4cfa df3c
00000010: b755 87bd e838 6c3d 3528 3c3e 914e 643d
00000020: 2fd6 a33d f4a1 323d 9154 78bb 9252 c63d
00000030: 9d76 a8bc fe6c 2b3e 7f04 abbd c483 ddbd
00000040: a3a4 9e3d 520a 933d 719d 5f3d fb83 5e3c
00000050: 2b4c babd 6fc8 073e a45f 99bb 7646 05be
00000060: 5f1d a5bd 2ebe 833d 79dc d23d b863 7ebd
00000070: d168 d7bd 270f a9bd 65f2 8bbd 129d ce3d
00000080: 13d7 08bc a9b8 0ebd 3029 ad3a 9459 d03d
00000090: 0182 4c3d 72b5 c93d e486 693d 984e 3fbd
000000a0: b6ef 92bd 59d9 59bc 40e1 503b 332a 273d
000000b0: ffcd f83d fe86 af3c a9e4 543d 3dfb 36bd
000000c0: 6070 6f3c 2d13 a2bd 9a03 05bd 6a0d aabd
000000d0: e6c6 33bc df05 f5bd bd53 33bd 2f3e 213e
000000e0: dbb9 043d 7ff7 82bc 8364 ef3b cb22 2bbd
000000f0: 228d 3c3b e204 f73c 14db 873c 6e34 0abe
00000100: 66d0 80bd 51a3 4cbd 7e44 4f3c 07ed 383e
00000110: de04 293d 83fa 33bd f3c9 fe3d 5559 63bd
00000120: b257 853d c4b2 0f3d bf68 d93d d73c d43d
00000130: 5679 953d 8d5c 8bbd 34df 323b e005 edbb
00000140: 7794 373c 842d 77bd ab4f adbd 5be8 243e
00000150: 7108 eebd 973b cc3c 36be b63d 3497 0c3d
00000160: cb63 04be f95a 723e ddc9 333d 1a2f 7aba
00000170: c4f9 0e3c 1573 613c 45a5 babc 2134 23be
00000180: 6b1a 0b3e e8e0 b93d 8258 293e fbd5 1c3d
00000190: 688d 24bd 04d9 c73d c3ed 1c3d 8f6e f53d
000001a0: 2a46 81bd 7021 32bd 4e98 acbd 096a 8e3d
000001b0: 35e0 7bbc 2ff9 ea3d 5fa8 323d 460d 983d
000001c0: 96cb 343e 42d6 09be a2a7 19be 9011 4e3c
000001d0: fad0 30bd ae5c 31bd adf5 723d 5f95 be3d
000001e0: adc4 e43d b449 c2bd 0306 1ebd bf22 833d
000001f0: 985e 95bd f138 95bd ab09 1ebd 0647 c0bd
00000200: 5a46 4e3c 49b5 d73d 8350 30bd 61d3 c93d
00000210: 6309 3f3d b5e6 cebd 0968 0dbe 087f 0c3e
00000220: 4981 073e a467 6ebd 08a3 4abd c2b2 e03d
00000230: ffc9 dc3d 31be 92bc a4c1 243d 4408 b6bd
00000240: 0648 52bd a83f 44bd b4b6 a0bb f54c 893c
00000250: 9fa5 fe3b e23e b6bd 937e 78bc ff5c b33d
00000260: c391 cd3b 50ca 173e b51e cd3d bcc4 afbc
00000270: 0a32 203e d2a4 3a3d a37d 6bbc 3d7c eebc
00000280: 09cf 893c 0596 a2bc 72e2 153d f4bd b8bc
00000290: 8cdb 4abc a74f 6bbc 0135 0cbe db34 d13d
000002a0: 4012 babc bb58 533d e066 f5bd 14e9 2b3d
000002b0: ddc4 3d3d 12d9 a1bc 2c2b 963d a426 073e
000002c0: 33c7 e2bc 4827 123d f126 00bd 707d fcbc
000002d0: 51a3 833d 070e bf3d f11a 20bb 1e45 803e
000002e0: 428c 183e 039f 43bd 37c3 f8bb 9cbf 03be
000002f0: c2eb e93d b2e6 debd 4054 973d f146 15be
00000300: 5eb8 1b3d 2e64 e5bd cc09 05ba ca3f d4bd
00000310: 1c11 2ebe c7aa 053d ad31 233d c588 073d
00000320: f3a1 6bbd b8dc 083d 450c 503a c62e 993d
00000330: cca3 03bb 0f6e 363d a4ed 913d a470 2dbd
00000340: da93 ebbd 7879 62bd 022e d2bd d85a ce3d
00000350: c4a7 dd3d 616b c6bd 98f8 bd3d 3baf 503d
00000360: 4ac0 49bd 7ce0 f43d 335c 30bd c850 b9bd
00000370: 728a d7bd ce1b 303d e3d1 bebc 5706 9e3d
00000380: dd70 103e 729e 5cbd d8d4 66bd 4eb5 883b
00000390: b08e 103d d2de d13d b715 103e a103 0c3e
000003a0: 2cba fcbd b2fd 65bd c0e9 20bc 8be1 4dbd
000003b0: 40d2 113e be69 52bd 1d1e a63c b9df 09bd
000003c0: a6c8 023e 4eb2 0fbe 9806 23bd a8dc fdbd
000003d0: eeab 41bc 89f6 a7bd af23 44bd fc26 21bd
000003e0: 6a3b 743e 0400 4f3c b279 cdbd 1260 67bd
000003f0: 4a36 6ebd 0ad6 35bd 785e b9bd acb2 073d

fc2.bias f4 [128]
-0.0154595645 -0.063879244 -0.06477972 0.06636719 0.055435475 -0.045635242 0.08938831 -0.13042335
0.0119773615 0.0032679038 -0.103429385 0.0673296 0.06945942 -0.15040392 2.4470512e-05 -0.097919725
0.007853883 -0.13426602 -0.016219975 0.11863059 0.09196558 0.054954927 -0.037929934 0.095602326
0.05652356 0.057584386 -0.007925524 -0.05219769 -0.14274622 0.123009756 -0.04562767 -0.073618874
-0.057717394 0.07358702 0.029642478 0.041558594 -0.046849784 0.09785761 0.025180735 -0.06575677
-0.04967657 0.07686147 0.09249274 -0.013674746 -0.040386982 -0.048378613 -0.086363174 0.0049047437
-0.06767852 0.101577565 0.0682403 -0.033997957 0.07980217 -0.061231617 -0.033154935 0.062182795
-0.009462883 -0.11465268 -0.000121544304 0.070416324 -0.06399618 0.06233555 0.04018135 -0.08284099
0.11563803 0.0046861228 0.039916027 -0.05478628 0.14966688 -0.020692099 -0.0120218955 -0.02708415
0.01550508 0.08783429 -0.019949203 0.05065512 0.012562262 -0.016299808 -0.13408186 -0.042403888
0.07837629 -0.08892361 0.07576973 -0.12448673 -0.08714674 0.06906477 -0.065724716 -0.06143561
-0.09579683 -0.0120098125 0.051881723 -0.039939053 0.09376461 -0.09287071 0.07472269 -0.07112902
-0.052468907 -0.052370876 0.079082005 -0.10992934 -0.0070443186 0.083485655 0.09612179 -0.021510394
-0.15118511 0.00042709557 0.047965616 0.06163451 0.026320515 -0.03769811 -0.018317617 -0.00045974308
0.06941628 0.028345924 0.058737617 0.086247526 -0.1009145 0.08472642 0.06319161 -0.11393537
-0.06405035 -0.035882954 0.022369156 -0.04791419 0.014507415 -0.07861842 0.09078902 -0.006389055
00000000: 1d4a 7dbc 1fd3 82bd 3bab 84bd 85eb 873d
00000010: 4f10 633d 05ec 3abd 3811 b73d b38d 05be
00000020: b23c 443c 542a 563b c9d2 d3bd 1ae4 893d
00000030: be40 8e3d 7c03 1abe 0646 cd37 238a c8bd
00000040: 93ad 003c 087d 09be c1df 84bc 98f4 f23d
00000050: 7358 bc3d 6b18 613d 6b5c 1bbd 27cb c33d
00000060: 4085 673d 9bdd 6b3d 0fda 01bc 3fcd 55bd
00000070: 112c 12be 8aec fb3d 14e4 3abd 7ec5 96bd
00000080: 1369 6cbd cbb4 963d c8d4 f23c 5839 2a3d
00000090: 8fe5 3fbd 9269 c83d d447 ce3c 7cab 86bd
000000a0: a979 4bbd 8c69 9d3d d56c bd3d 0b0c 60bc
000000b0: d26c 25bd a728 46bd 2ddf b0bd f9b7 a03b
000000c0: 099b 8abd e607 d03d 92c1 8b3d 7141 0bbd
000000d0: 526f a33d 01ce 7abd 78cd 07bd 63b3 7e3d
000000e0: 350a 1bbc 06cf eabd 9ae5 feb8 6f36 903d
000000f0: 6e10 83bd 9053 7f3d 3395 243d 89a8 a9bd
00000100: a2d3 ec3d 0c8e 993b fd7e 233d 9467 60bd
00000110: 4642 193e 7a82 a9bc 7cf7 44bc 94df ddbc
00000120: 0509 7e3c 77e2 b33d 836c a3bc be7b 4f3d
00000130: f2d1 4d3c 2d87 85bc c14c 09be b3af 2dbd
00000140: c083 a03d 951d b6bd 292d 9b3d e6f2 febd
00000150: fd79 b2bd d571 8d3d ae9a 86bd e8a3 7bbd
00000160: 2131 c4bd cec4 44bc ee81 543d 2297 23bd
00000170: a907 c03d 0033 bebd 3608 993d 17ac 91bd
00000180: a3e9 56bd d882 56bd bff5 a13d a222 e1bd
00000190: 07d4 e6bb 87fa aa3d 80db c43d 9136 b0bc
000001a0: 45d0 1abe cceb df39 9877 443d 7874 7c3d
000001b0: 1f9e d73c 5569 1abd d40e 96bc ac09 f1b9
000001c0: 1f2a 8e3d b635 e83c db96 703d 8ba2 b03d
000001d0: 43ac cebd 0c85 ad3d 9a6a 813d f356 e9bd
000001e0: d42c 83bd 01fa 12bd 853f b73c ab41 44bd
000001f0: 82b0 6d3c b202 a1bd 98ef b93d 475b d1bb

fc3.weight f4 [256, 128]
0.008899684 0.07769286 0.07940503 0.12993854 -0.051544577 0.033830035 0.110102884 -0.06544894
0.07738858 0.082850076 0.023132084 0.051131424 0.043153945 -0.05089626 -0.005623295 -0.032259807
0.14564529 0.013401584 -0.032141566 -0.013555772 0.04299134 -0.03643635 -0.10880115 -0.000840284
-0.0005818029 0.052105796 0.023041952 -0.031446952 -0.04099738 0.0008577465 -0.09536958 -0.0827056
-0.10381551 -0.016172921 0.038846646 0.025859231 0.04812554 -0.011126411 0.122864984 0.020372393
-0.015821371 0.066810615 0.0012528962 -0.02324083 -0.1271634 0.027521193 -0.023852922 -0.031025037
-0.014065284 0.01853354 -0.03759199 0.032679774 0.06659104 0.029034933 0.022734482 0.0086149275
0.061837524 0.04405858 -0.036879566 0.14563575 0.012885782 -0.024310902 0.016062403 0.0051161554
0.014589811 -0.07242582 0.05393727 0.00792542 0.057425436 -0.033031154 0.011545163 -0.14427109
0.042674284 0.02078491 0.014377382 -0.118749216 0.08193178 0.044451363 0.010955522 0.03624198
-0.067960486 0.07888019 -0.024705512 0.08390253 -0.07147513 -0.032101665 -0.10470083 0.030950313
0.033566955 -0.0040300763 -0.10973056 -0.007527628 -0.020447837 -0.042404123 0.052333657 0.0609321
-0.0988442 0.088102624 0.018480247 0.0038312993 0.018830992 0.0008862009 -0.030297657 0.019027103
-0.03625626 0.045999154 0.07155752 0.0501378 -0.0061092633 -0.000110792855 -0.037350554 0.013037069
-0.1419197 0.13744971 -0.119230084 0.028807295 0.06733147 0.035544783 -0.030771473 0.07440665
0.10338798 -0.08576352 -0.0043451614 0.06998254 0.009955922 -0.11938492 0.11795013 -0.049097802
0.0219403 0.009642076 -0.080868736 0.00083284883 -0.07179578 0.0025370035 -0.040069122 0.048226587
0.0033802816 0.05486635 -0.0803262 -0.08262866 -0.08089441 -0.014203682 0.016896263 -0.05194274
0.042563993 0.010788096 -0.10235311 0.050315205 -0.06009957 0.05032294 -0.016432937 0.075513765
-0.055381417 0.049696103 -0.0879289 0.033508785 0.034372937 0.0036525005 -0.050316352 -0.07116186
0.036633532 0.042413 -0.062305912 -0.03184776 0.07101957 0.016216597 0.016315226 0.05690154
0.009810268 -0.03556988 -0.09779789 -0.019291442 0.0013007596 -0.07109687 -0.059599712 -0.051322404
0.051317304 0.025783923 -0.012278272 -0.0423842 0.06276944 -0.06327164 -0.018939909 -0.07338899
0.002909029 0.02027238 -0.09424158 -0.036656804 0.018381812 -0.08728926 -0.09576086 -0.039879613
0.020285496 0.0059249983 0.037285317 -0.018022528 -0.04229033 -0.080875054 -0.082544655 -0.089452066
-0.049882047 0.027291542 0.072821416 -0.08722995 -0.0028653033 0.008267685 -0.016253356 0.020973623
-0.086965345 -0.05789152 -0.008230049 -0.008343765 -0.03848177 -0.08490622 -0.09083958 -0.08335396
0.04034177 -0.08643896 -0.028803019 -0.08949277 0.024216775 -0.084860265 -0.08788744 0.03209078
-0.078779235 -0.013807635 -0.06715592 -0.08439852 -0.075066805 -0.0745741 -0.066793375 -0.08012539
0.042935096 -0.022583669 -0.06846368 -0.088541515 0.003900114 -0.058014933 0.0045883814 -0.0832996
-0.053581454 0.007463165 -0.046142332 -0.09492071 0.021638848 -0.042414375 0.05357549 -0.017784983
-0.03149727 -0.06222059 0.045036744 -0.08782385 0.024856832 -0.06233465 -0.01493956 0.086369514
00000000: fbcf 113c 6f1d 9f3d 1b9f a23d 9c0e 053e
00000010: 6820 53bd 5d91 0a3d 9f7d e13d 180a 86bd
00000020: e77d 9e3d 4dad a93d 7f7f bd3c 2f6f 513d
00000030: 31c2 303d 9978 50bd 9e43 b8bb dc22 04bd
00000040: 0a24 153e 5192 5b3c e0a6 03bd 0719 5ebc
00000050: b017 303d 483e 15bd 23d3 debd 8146 5cba
00000060: 2284 18ba e36c 553d 7ac2 bc3c 85ce 00bd
00000070: deec 27bd 65da 603a 2051 c3bd 8e61 a9bd
00000080: 3a9d d4bd 137d 84bc a91d 1f3d bdd6 d33c
00000090: 491f 453d 8d4b 36bc a3a0 fb3d 01e4 a63c
000000a0: d29b 81bc 01d4 883d 3838 a43a 8e63 bebc
000000b0: 1f37 02be 2074 e13c 3467 c3bc 3828 febc
000000c0: 1472 66bc a7d3 973c 0ffa 19bd 3adb 053d
000000d0: e260 883d abda ed3c aa3d ba3c a025 0d3c
000000e0: 5849 7d3d c576 343d 070f 17bd 8a21 153e
000000f0: e31e 533c a827 c7bc 4d95 833c 6ca5 a73b
00000100: 1a0a 6f3c fd53 94bd 54ed 5c3d 9fd9 013c
00000110: ef36 6b3d ad4b 07bd ec27 3d3c cdbb 13be
00000120: 3bcb 2e3d 1e45 aa3c 1c8f 6b3c ca32 f3bd
00000130: d9cb a73d a212 363d ca7e 333c 7872 143d
00000140: de2e 8bbd f08b a13d 3763 cabc 17d5 ab3d
00000150: 8e61 92bd 097d 03bd 646d d6bd 838b fd3c
00000160: 817d 093d bb0e 84bb 6aba e0bd 52aa f6bb
00000170: 3982 a7bc f2af 2dbd d15b 563d f093 793d
00000180: d46e cabd 266f b43d e363 973c 8916 7b3b
00000190: 7443 9a3c f04f 683a cb32 f8bc bade 9b3c
000001a0: 7281 14bd 9c69 3c3d c08c 923d 4b5d 4d3d
000001b0: 3730 c8bb 7659 e8b8 e5fc 18bd 6e99 553c
000001c0: 6653 11be 9ebf 0c3e e72e f4bd 47fd eb3c
000001d0: 15e5 893d 6897 113d 7514 fcbc 8462 983d
000001e0: 14bd d33d c9a4 afbd db61 8ebb 0253 8f3d
000001f0: 2a1e 233c 1580 f4bd d68f f13d c71a 49bd
00000200: 25bc b33c ccf9 1d3c 829e a5bd 8a53 5a3a
00000210: aa09 93bd db43 263b 851f 24bd 3e89 453d
00000220: b787 5d3b 8abb 603d 1082 a4bd 3739 a9bd
00000230: f8ab a5bd 8fb6 68bc 086a 8a3c e9c1 54bd
00000240: 9557 2e3d 8ec0 303c 829e d1bd 5117 4e3d
00000250: f72a 76bd 6d1f 4e3d 5e9e 86bc f6a6 9a3d
00000260: a0d7 62bd 248e 4b3d 1114 b4bd 8240 093d
00000270: a3ca 0c3d ca5e 6f3b 8518 4ebd 4fbd 91bd
00000280: 0b0d 163d 41b9 2d3d 7c34 7fbd cc72 02bd
00000290: b572 913d abd8 843c 82a7 853c 9711 693d
000002a0: 3fbb 203c b9b1 11bd 434a c8bd 1609 9ebc
000002b0: 407e aa3a 3c9b 91bd d41e 74bd 7137 52bd
000002c0: 1832 523d ce38 d33c ce2a 49bc 0e9b 2dbd
000002d0: 448d 803d 9094 81bd de27 9bbc f74c 96bd
000002e0: 68a5 3e3b 4312 a63c bb01 c1bd 7225 16bd
000002f0: 7495 963c b6c4 b2bd 451e c4bd ce58 23bd
00000300: c52d a63c 7d26 c23b 7db8 183d fba3 93bc
00000310: a038 2dbd d2a1 a5bd 2c0d a9bd a532 b7bd
00000320: 1e51 4cbd 8392 df3c 6523 953d 9ea5 b2bd
00000330: d0c7 3bbb 2f75 073c c225 85bc e0d0 ab3c
00000340: e31a b2bd a91f 6dbd 54d7 06bc 49b4 08bc
00000350: 0f9f 1dbd 50e3 adbd 1a0a babd 7bb5 aabd
00000360: 693d 253d e906 b1bd 4ff4 ebbc fc47 b7bd
00000370: 4262 c63c 38cb adbd 55fe b3bd 9f71 033d
00000380: 0257 a1bd 6b39 62bc 0b89 89bd 22d9 acbd
00000390: a0bc 99bd 4eba 98bd f7ca 88bd c818 a4bd
000003a0: b6dc 2f3d 6301 b9bc b036 8cbd 4155 b5bd
000003b0: 0e99 7f3b 11a1 6dbd 225a 963b fb98 aabd
000003c0: 3a78 5bbd 918d f43b beff 3cbd ca65 c2bd
000003d0: f443 b13c b2ba 2dbd f971 5b3d d0b1 91bc
000003e0: 4803 01bd 04db 7ebd 7378 383d fedc b3bd
000003f0: 8ea0 cb3c 9e52 7fbd 0ec5 74bc 80e2 b03d

fc3.bias f4 [256]
0.0469015 -0.007727802 -0.047102813 -0.012922161 0.016659576 0.052168034 -0.05843622 -0.020878367
0.054014947 -0.05653802 -0.0348427 -0.0029079407 0.022353007 -0.02715547 0.071352825 -0.068865545
0.03209001 0.030382127 -0.048129573 -0.011710062 -0.046025436 -0.044164516 0.04933307 0.028525779
-0.060268708 -0.054417033 0.047731824 -0.040752076 0.11055453 0.037498463 -0.06784239 -0.01891615
-0.010379113 -0.070986316 -0.06444314 0.0771192 0.07021758 0.055338513 -0.028492158 0.072138995
-0.043839123 0.04792053 0.07985113 0.067145176 -0.104844846 -0.08027339 0.031548914 0.014826262
-0.024503043 -0.044514198 0.043423463 -0.009716514 -0.011305913 0.0056742616 -0.043111116 0.0074722962
-0.008007959 0.079295956 -0.021831114 0.07090259 -0.00212149 -0.060868423 -0.005574027 0.009378027
0.073115975 -0.059484422 0.058126364 0.054993294 -0.05508958 -0.0089234235 -0.023295904 -0.07981061
-0.031305607 -0.04425306 0.014250637 -0.039695613 0.046366792 -0.017206935 -0.05084365 0.02678102
0.00459184 0.084407605 0.002632882 0.10363461 -0.04770568 -0.099836506 -0.057215802 -0.04720683
-0.04793147 -0.043085895 -0.07673972 -0.029340897 -0.058527317 0.028098967 -0.036802728 0.0360415
0.01477267 -0.06207479 0.07971186 -0.03942991 0.02679399 -0.07414302 -0.01615095 0.054219734
-0.06186589 0.059353583 -0.098142676 -0.042907648 -0.053182114 -0.00599233 0.022005776 0.049183983
-0.022133334 0.044464353 0.04634693 0.07301184 -0.052787088 -0.0088496525 -0.031437654 0.03232574
0.015347364 -0.022437694 0.012219521 0.0061170016 -0.058722004 0.0610979 -0.017056413 0.04101694
-0.08499873 0.047674973 -0.08477721 -0.045818757 0.040472984 -0.01672201 0.0054165297 -0.06609457
-0.010803334 0.016209584 0.064347565 0.016266368 -0.10990611 -0.06591594 -0.012111259 -0.048074327
-0.06215176 -0.08636567 -0.02608091 -0.054243013 -0.051410686 0.0009311175 0.018742952 0.09519011
0.066614434 -0.0028129234 0.013448989 0.04374589 -0.110498235 0.020554714 -0.04755872 0.019508317
0.021874806 0.07635718 0.03914995 -0.026426168 -0.07836356 -0.012264056 -0.06451825 -0.0628684
0.05024588 -0.048227374 0.0037277108 -0.081065506 0.02073476 -0.12653992 -0.051696762 0.00432533
0.104168944 -0.095117316 -0.038233086 0.012135723 0.055509157 -0.099529445 -0.04216408 0.041361477
-0.093085766 0.028812317 0.093748406 0.022380294 0.0645625 -0.0018759953 -0.05833186 0.017702065
0.05021898 0.011866964 -0.052404612 0.042953692 0.023252279 -0.010347215 -0.040217053 -0.08677061
0.061941296 0.044752166 -0.04409522 -0.037867133 0.1152607 0.03897651 -0.08936482 0.054753277
-0.08072412 -0.021052439 0.09147859 -0.022479596 0.07666415 -0.07015007 -0.07656018 0.0016174585
0.03627021 0.049961723 0.034827933 0.0011166479 0.043997847 0.07073828 0.013458251 0.028040837
-0.08538064 -0.065305404 0.04719558 -0.017144363 -0.057051416 -0.033996332 0.03749161 -0.049018458
0.019942407 0.02232591 -0.02025776 -0.03166676 -0.085482724 0.042357463 0.026978279 0.008948377
-0.100711726 0.029238576 0.07642838 0.010506602 0.010755748 0.0031818803 0.048086043 0.059118196
-0.07283388 0.01666014 0.041104518 -0.023875263 0.010716149 0.045024347 -0.018249331 0.03649439
00000000: ca1b 403d 8039 fdbb e1ee 40bd 79b7 53bc
00000010: aa79 883c 26ae 553d d15a 6fbd 1c09 abbc
00000020: c73e 5d3d 6994 67bd 38b7 0ebd 2693 3ebb
00000030: a71d b73c 2675 debc 6e21 923d 6109 8dbd
00000040: d070 033d f0e3 f83c 8423 45bd 8fdb 3fbc
00000050: 2b85 3cbd dae5 34bd 7911 4a3d e5ae e93c
00000060: 52dc 76bd 65e4 5ebd 7282 433d a6eb 26bd
00000070: 6a6a e23d fd97 193d f3f0 8abd 0bf6 9abc
00000080: 280d 2abc 4661 91bd c4fa 83bd acf0 9d3d
00000090: 3cce 8f3d a3aa 623d 6368 e9bc 9cbd 933d
000000a0: a790 33bd 5148 443d fd88 a33d 6983 893d
000000b0: e5b8 d6bd 6066 a4bd 6f39 013d dae9 723c
000000c0: 9bba c8bc 8554 36bd cddc 313d 0332 1fbc
000000d0: 703c 39bc 28ef b93b 4895 30bd 2ada f43b
000000e0: d133 03bc eb65 a23d 2ad7 b2bc 6135 913d
000000f0: b208 0bbb 2b51 79bd 54a6 b6bb 4ca6 193c
00000100: d4bd 953d f0a5 73bd e915 6e3d a640 613d
00000110: 9da5 61bd 8d33 12bc 0dd7 bebc bf73 a3bd
00000120: 4f3a 00bd b242 35bd 817b 693c de97 22bd
00000130: 1beb 3d3d 8ff5 8cbc 6e41 50bd df63 db3c
00000140: 2577 963b e5dd ac3d 6e8c 2c3b 623e d43d
00000150: 0867 43bd 1577 ccbd 1e5b 6abd f35b 41bd
00000160: ca53 44bd d67a 30bd b729 9dbd 525c f0bc
00000170: 57ba 6fbd ce2f e63c 75be 16bd 40a0 133d
00000180: 1209 723c 2342 7ebd f93f a33d 4281 21bd
00000190: 127f db3c 4cd8 97bd ff4e 84bc 8315 5e3d
000001a0: 1667 7dbd be1c 733d 07ff c8bd eebf 2fbd
000001b0: 7dd5 59bd 4f5b c4bb 7545 b43c 2575 493d
000001c0: f750 b5bc 4120 363d 47d6 3d3d 3b87 953d
000001d0: 4637 58bd 22fe 10bc c5c4 00bd ff67 043d
000001e0: 8373 7b3c 41cf b7bc 6334 483c 2171 c83b
000001f0: 7c86 70bd cb41 7a3d e4b9 8bbc 6101 283d
00000200: d013 aebd d546 433d ad9f adbd 73ac 3bbd
00000210: 00c7 253d 99fc 88bc 257d b13b 975c 87bd
00000220: 7800 31bc f6c9 843c a8c8 833d 0c41 853c
00000230: 7416 e1bd f0fe 86bd 4d6e 46bc 96e9 44bd
00000240: d892 7ebd 7ce0 b0bd a2a7 d5bc ec2d 5ebd
00000250: 0394 52bd 3d16 743a d28a 993c 08f3 c23d
00000260: 266d 883d 0659 38bb 2659 5c3c e42e 333d
00000270: e64c e2bd 5c62 a83c efcc 42bd e8cf 9f3c
00000280: cb32 b33c 2761 9c3d b35b 203d b17b d8bc
00000290: 137d a0bd 2eef 48bc 2522 84bd 26c1 80bd
000002a0: a0ce 4d3d 118a 45bd 9c4c 743b ac05 a6bd
000002b0: f2db a93c ae93 01be fcbf 53bd 7fbb 8d3b
000002c0: 8756 d53d decc c2bd 4c9a 1cbd e9d4 463c
000002d0: 925d 633d 18d6 cbbd 3eb4 2cbd a76a 293d
000002e0: c0a3 bebd cf07 ec3c 2aff bf3d e156 b73c
000002f0: 5839 843d f5e3 f5ba 63ed 6ebd ec03 913c
00000300: 6bb2 4d3d a86d 423c 38a6 56bd 36f0 2f3d
00000310: 907b be3c 5e87 29bc a3ba 24bd cab4 b1bd
00000320: 28b6 7d3d 0c4e 373d 309d 34bd 911a 1bbd
00000330: cd0d ec3d d5a5 1f3d e704 b7bd f944 603d
00000340: b052 a5bd 2a76 acbc 2159 bb3d 2127 b8bc
00000350: 1802 9d3d d7aa 8fbd 95cb 9cbd e700 d43a
00000360: 1290 143d aaa4 4c3d bca7 0e3d 7c5c 923a
00000370: 1637 343d 3bdf 903d ff7f 5c3c e6b5 e53c
00000380: 0cdc aebd d7be 85bd 2750 413d 5672 8cbc
00000390: bfae 69bd bd3f 0bbd cd90 193d 94c7 48bd
000003a0: 425e a33c d4e4 b63c 9af3 a5bc 01b5 01bd
000003b0: 9111 afbd 057f 2d3d 8d01 dd3c 379c 123c
000003c0: f341 cebd bd85 ef3c 7c86 9c3d e223 2c3c
000003d0: e038 303c 1887 503b dff5 443d ec25 723d
000003e0: ee29 95bd d97a 883c 365d 283d 0e96 c3bc
000003f0: c992 2f3c 736b 383d 9f7f 95bc 247b 153d

fc4.weight f4 [128, 256]
-0.04542291 0.04035107 0.051402107 -0.051631223 -0.028759029 -0.018036816 -0.0509047 -0.05707379
-0.0025995069 0.046293475 -0.06321108 0.045240063 0.0036801118 -0.02546223 0.0030875758 0.055966947
-0.03774978 0.06521452 -0.05592773 -0.038217355 0.06731033 -0.0058627506 -0.06364638 -0.075373955
-0.071621336 0.012459563 -0.05010135 -0.06984529 -0.047377937 0.05058315 -0.048184045 -0.034085803
0.037019487 0.01574147 -0.010881335 0.054526486 -0.029801724 0.050118502 -0.019242877 0.0035208974
0.0031858818 -0.03994996 -0.06049933 0.0066460753 0.042274706 -0.063368306 0.036625765 0.045630354
-0.004702957 -0.01156776 0.04665086 -0.063358985 -0.021371413 0.08680772 0.02545347 -0.027919589
-0.007087329 -0.03403671 0.0255724 -0.011155988 -0.055028852 0.034738734 0.07032053 0.06073097
0.06523922 0.016350836 0.046416152 0.06199559 -0.008067602 0.0043917503 0.052374586 -0.0024272162
-0.047406916 -0.011301272 -0.0029665222 -0.032892868 0.0059970515 0.022862958 0.025382575 -0.04782425
0.017805027 0.054761235 -0.0118531985 0.029422134 -0.0024480487 0.04558765 -0.07345328 -0.033899494
-0.0028263729 0.02877407 -0.027620718 -0.011450902 -0.06858709 0.053935874 0.058111235 0.010146029
0.041970905 -0.005585276 -0.03277474 -0.0132890185 0.031160535 -0.08229371 0.039005388 0.033393547
-0.0045207543 0.059882957 -0.0041103675 0.030746987 -0.06653258 -0.03889532 0.057690248 -0.0030426239
0.064855136 -0.0026732106 -0.012769875 -0.0772192 -0.060159396 -0.010037209 0.008911734 -0.050410878
-0.056328777 0.050123777 0.03227456 0.09266676 0.022347618 -0.0041788085 0.02459968 0.009013206
-0.073387854 -0.043343972 -0.003038246 -0.047922455 0.027943356 -0.057065696 -6.608181e-05 -0.01699965
0.0057345484 -0.071514644 0.03301953 0.034435097 -0.009487517 0.010338464 -0.013552068 -0.059127375
0.004217052 0.043442767 -0.0051376955 0.0269472 -0.060086284 -0.053967986 0.06611659 -0.018322889
-0.047544934 0.045555886 -0.051884253 0.0063948273 0.02215447 0.0067744902 0.021037579 -0.06853498
0.09343103 -0.10201252 -0.04198481 0.029403199 -0.056305535 -0.016741121 0.04564236 0.03652767
0.011578711 -0.01696117 -0.04128035 0.04597845 -0.04613559 -0.003049029 -0.057575963 0.015523326
-0.025664467 -0.0038561476 -0.019722223 -0.05786758 -0.0074424604 0.031927396 0.057720177 -0.04192105
-0.070214294 0.002964786 -0.01817948 0.04202914 0.03376848 0.045414172 0.008111882 0.024217356
0.02308984 0.00056170975 0.07941482 -0.039325643 -0.032770194 -0.04633793 0.03707995 -0.036133192
-0.00640816 0.017955367 -0.055024292 0.03317514 -0.051469848 -0.010431589 0.008153905 0.01583584
0.051971868 -0.020475365 0.052985866 0.034377888 -0.028853009 -0.058413856 -0.024845509 -0.024069816
0.04735787 -0.05366134 0.022698661 0.030727446 0.00046308723 0.069644555 0.026351156 -0.07578223
0.015180604 0.046392072 0.051246487 0.018706538 -0.0027307114 -0.052030355 0.04673874 0.0038802493
-0.05246315 -0.08874325 0.026224885 -0.037271004 0.03569806 -0.010862292 -0.019899156 -0.022863269
0.0493667 0.013764908 -0.008728723 -0.04041189 0.0010402942 0.007054762 -0.053716194 0.00032622728
0.00013847215 -0.0033131116 -0.0720917 -0.067413375 0.07355272 0.007922015 0.0074699055 0.040186636
00000000: 600d 3abd 2a47 253d 048b 523d 437b 53bd
00000010: 0e98 ebbc f2c1 93bc 7281 50bd 35c6 69bd
00000020: 7d5c 2abb 3a9e 3d3d d074 81bd a54d 393d
00000030: 082e 713b 2b96 d0bc ed58 4a3b 993d 653d
00000040: 839f 1abd 318f 853d 7a14 65bd cd89 1cbd
00000050: 00da 893d 511c c0bb 0959 82bd a95d 9abd
00000060: 35ae 92bd 3223 4c3c 1337 4dbd 0c0b 8fbd
00000070: 5e0f 42bd 4730 4f3d a25c 45bd 8e9d 0bbd
00000080: bfa1 173d 41f4 803c a047 32bc 2a57 5f3d
00000090: bf22 f4bc 0f49 4d3d 3da3 9dbc dbbe 663b
000000a0: 3aca 503b 92a2 23bd 25ce 77bd 52c7 d93b
000000b0: 3e28 2d3d 3ec7 81bd e604 163d e5e6 3a3d
000000c0: 431b 9abb b486 3dbc f914 3f3d 5bc2 81bd
000000d0: 1a13 afbc 3fc8 b13d cc83 d03c 9fb7 e4bc
000000e0: d33c e8bb 146a 0bbd 367d d13c 9bc7 36bc
000000f0: ef65 61bd 344a 0e3d 3604 903d 0ac1 783d
00000100: 249c 853d 30f2 853c dd1e 3e3d 16ef 7d3d
00000110: fa2d 04bc ace8 8f3b bc86 563d ee11 1fbb
00000120: c12d 42bd f828 39bc fc69 42bb acba 06bd
00000130: ea82 c43b 194b bb3c 1eef cf3c 5ce3 43bd
00000140: d9db 913c 514d 603d eb33 42bc b006 f13c
00000150: 716f 20bb 1eba 3a3d ac6e 96bd 32da 0abd
00000160: ab3a 39bb 99b7 eb3c d844 e2bc 909c 3bbc
00000170: 6377 8cbd ddeb 5c3d 0c06 6e3d 883b 263c
00000180: afe9 2b3d b104 b7bb ce3e 06bd 2fba 59bc
00000190: 6144 ff3c 9b89 a8bd 1dc4 1f3d acc7 083d
000001a0: d622 94bb d547 753d 43b0 86bb 1be1 fb3c
000001b0: 3c42 88bd b350 1fbd 9c4c 6c3d c266 47bb
000001c0: c5d2 843d 0831 2fbb bd38 51bc 1a25 9ebd
000001d0: b369 76bd 1b73 24bc 8602 123c a37b 4ebd
000001e0: 01b9 66bd 974e 4d3d 5432 043d 12c8 bd3d
000001f0: 5a12 b73c 63ee 88bb 4585 c93c 20ac 133c
00000200: 5f4c 96bd 7389 31bd 4f1d 47bb 564a 44bd
00000210: 77e9 e43c b8bd 69bd 6795 8ab8 da42 8bbc
00000220: e1e8 bb3b 4576 92bd 7d3f 073d d10b 0d3d
00000230: 8871 1bbc a962 293c 7e09 5ebc 8c2f 72bd
00000240: 322f 8a3b 0bf1 313d 1d5a a8bb 60c0 dc3c
00000250: 091d 76bd 890d 5dbd 2268 873d e219 96bc
00000260: 7abe 42bd cf98 3a3d 9584 54bd b38b d13b
00000270: 4b7d b53c 8bfc dd3b 0057 ac3c 115c 8cbd
00000280: c558 bf3d f1eb d0bd 44f8 2bbd fade f03c
00000290: a2a0 66bd ad24 89bc 7cf3 3a3d 0a9e 153d
000002a0: a2b4 3d3c 27f2 8abc 9615 29bd e653 3c3d
000002b0: acf8 3cbd 38d2 47bb c6d4 6bbd 8c55 7e3c
000002c0: 4a3e d2bc 6cb7 7cbb 8090 a1bc 8e06 6dbd
000002d0: e2df f3bb 4dc6 023d fe6b 6c3d 68b5 2bbd
000002e0: 83cc 8fbd db4c 423b 22ed 94bc bf26 2c3d
000002f0: d150 0a3d 3604 3a3d b3e7 043c 7a63 c63c
00000300: e726 bd3c b43f 133a 3da4 a23d ed13 21bd
00000310: 0a3a 06bd d7cc 3dbd 25e1 173d 6600 14bd
00000320: 8bfb d1bb 2217 933c 2761 61bd a8e2 073d
00000330: 0cd2 52bd 41e9 2abc f597 053c 2aba 813c
00000340: 74e0 543d f4bb a7bc b507 593d d4cf 0c3d
00000350: 255d ecbc 5e43 6fbd cf88 cbbc 102e c5bc
00000360: 53fa 413d fecb 5bbd 8bf2 b93c 20b8 fb3c
00000370: 84ca f239 cea1 8e3d 61de d73c b733 9bbd
00000380: 11b8 783c 9d05 3e3d d6e7 513d 743e 993c
00000390: bcf5 32bb c81d 55bd 1f71 3f3d c84b 7e3b
000003a0: 9ae3 56bd 05bf b5bd 92d5 d63c 7ba9 18bd
000003b0: 2138 123d c1f7 31bc 8e03 a3bc c04b bbbc
000003c0: bd34 4a3d 3586 613c eb02 0fbc f086 25bd
000003d0: 7b5a 883a a22b e73b 8305 5cbd 7c09 ab39
000003e0: d632 1139 ca20 59bb d0a4 93bd 0610 8abd
000003f0: cfa2 963d 57cb 013c 1cc6 f43b be9a 243d

fc4.bias f4 [128]
0.033554703 0.028036604 0.011636591 -0.04478338 -0.0665437 -0.010421592 -0.04906272 -0.05538036
0.015820296 0.07202568 -0.021332605 -0.05555874 -0.0052164304 -0.027174352 0.07081576 0.0131485155
0.021120092 0.00012624325 -0.044042826 -0.013149794 -0.054536298 0.0343391 0.0070807366 -0.0067810817
-0.029452404 -0.074306674 0.012416641 0.016841574 0.06490078 0.012979829 0.0039282762 -0.066358544
-0.018232264 -0.056710668 0.033075135 -0.04548911 0.023831913 0.0059138653 -0.10047978 0.011096946
-0.01157069 -0.05929755 -0.004207322 -0.07292325 0.02807075 0.027565897 -0.014151947 -0.07106052
-0.052764382 -0.056436308 -0.027320888 -0.012194912 -0.009749154 0.021134874 -0.049782954 -0.04951149
0.024922837 -0.062002946 -0.07362544 -0.010953598 0.0036088405 -0.05900787 0.01902706 0.023035685
-0.088124946 0.07184814 0.046341937 -0.049078085 -0.061457857 -0.030005353 -0.0123445075 0.046041828
0.039493144 0.08102481 0.012853432 -0.02450365 -0.04264362 0.026551977 0.026807524 -0.0334764
-0.04453049 -0.05259339 0.024404187 -0.031148996 0.044572767 -0.064632595 -0.0054255417 0.030735208
-0.07125694 0.009888118 -0.070463985 -0.082955346 0.06185421 -0.04326306 0.026646215 -0.012315568
0.017203676 -0.099287905 0.009431623 0.008672211 -0.029223477 -0.014488759 0.014051108 0.0190011
-0.027133387 -0.07909507 -0.039506387 -0.028747858 -0.046627015 0.06277142 -0.045199532 -0.043134175
0.012322922 0.037523113 -0.018059354 0.021127878 0.022784613 0.026375122 -0.075109854 0.008813409
0.036383037 0.006410583 0.008737968 0.04198988 0.013460783 -0.018111587 -0.09045281 0.009090338
00000000: a870 093d 05ad e53c 66a7 3e3c c76e 37bd
00000010: 1048 88bd 53bf 2abc fef5 48bd 84d6 62bd
00000020: 9199 813c 3382 933d b7c1 aebc 9091 63bd
00000030: 97ee aabb bf9c debc da07 913d df6c 573c
00000040: 0b04 ad3c 2a60 0439 4066 34bd 3c72 57bc
00000050: 7461 5fbd 28a7 0c3d 8605 e83b d633 debb
00000060: 2b46 f1bc 192e 98bd 2b6f 4b3c 57f7 893c
00000070: b3ea 843d 59a9 543c c5b8 803b fde6 87bd
00000080: d45b 95bc 7249 68bd cb79 073d ca52 3abd
00000090: 253b c33c 19c9 c13b 58c8 cdbd f7cf 353c
000000a0: fe92 3dbc fde1 72bd 93dd 89bb c958 95bd
000000b0: a1f4 e53c e0d1 e13c 91dd 67bc 2e88 91bd
000000c0: 771f 58bd c229 67bd 0ed0 dfbc 2bcd 47bc
000000d0: eaba 1fbc 0b23 ad3c 36e9 4bbd 8fcc 4abd
000000e0: fa2a cc3c cdf6 7dbd efc8 96bd b876 33bc
000000f0: 4c82 6c3b 3cb2 71bd a3de 9b3c 55b5 bc3c
00000100: da7a b4bd 1e25 933d 0bd1 3d3d 1a06 49bd
00000110: 3cbb 7bbd c9cd f5bc 9e40 4abc 5b96 3c3d
00000120: 90c3 213d 56f0 a53d 3497 523c e1bb c8bc
00000130: 14ab 2ebd 8883 d93c 749b db3c 8d1e 09bd
00000140: 9a65 36bd 2b6c 57bd 4aeb c73c 2e2c ffbc
00000150: ef91 363d 185e 84bd bec8 b1bb 67c8 fb3c
00000160: 29ef 91bd c601 223c 6c4f 90bd 7ee4 a9bd
00000170: d75a 7d3d 9b34 31bd 2a49 da3c 3cc7 49bc
00000180: b9ee 8c3c 7557 cbbd 1887 1a3c e415 0e3c
00000190: 1366 efbc 4362 6dbc 9e36 663c 32a8 9b3c
000001a0: d646 debc 99fc a1bd 73d1 21bd a180 ebbc
000001b0: f8fb 3ebd 4d8e 803d 2523 39bd 76ad 30bd
000001c0: 15e6 493c d6b1 193d 36f1 93bc 5f14 ad3c
000001d0: cca6 ba3c a410 d83c 32d3 99bd 1e66 103c
000001e0: 6106 153d de0f d23b b229 0f3c 95fd 2b3d
000001f0: 9e8a 5c3c c05e 94bc 533f b9bd a4ef 143c

fc5.weight f4 [64, 128]
-0.027566316 -0.057322644 -0.06817748 9.983957e-05 -0.063496746 0.09117603 0.051011406 0.01074341
0.005595466 -0.18683307 -0.09014193 -0.095202535 0.009152766 0.032274485 -0.07384382 0.050663896
0.08529576 -0.06971463 -0.05055211 0.0669538 -0.051619995 -0.014806508 -0.08533221 0.047070842
-0.012695497 0.054014165 0.07020219 0.038574643 0.0664267 0.044286355 0.07419597 0.009168249
-0.10737725 0.056654695 -0.06730848 0.067494646 0.056086525 -0.08078093 -0.034561798 -0.04669197
-0.04017191 -0.004371807 -0.10534485 -0.0514448 -0.037368786 0.02683976 0.05138114 -0.024525724
0.061866168 0.068078995 -0.07279258 -0.04842249 0.024492312 0.0159047 -0.014689882 0.009711466
-0.059612703 -0.03076967 0.051827997 -0.06278824 -0.094879046 0.090430915 0.0034426749 -0.07410491
0.0055647693 0.051074296 0.021329802 -0.015195282 0.01199908 0.10619071 -0.009956362 -0.034891408
0.033681847 0.057754237 0.054586023 -0.04973558 0.03254903 0.13698825 -0.055992976 -0.02970906
-0.05232156 0.036198504 0.042869907 -0.075440146 -0.0007901615 -0.11917463 0.02797745 0.037136976
0.07037761 -0.06702963 -0.0038046688 -0.047223065 -0.10480409 0.0046234163 0.015496153 0.040756505
0.016152093 -0.022669239 -0.033297677 -0.059784807 0.037428748 -0.0028398572 0.02055579 0.036837485
-0.023914529 0.07473698 0.028051743 -0.06977673 0.012073064 0.044646546 -0.14214796 0.047390882
-0.03273418 -0.23248024 -0.04964166 -0.056962926 0.077357955 0.008614036 0.02207204 -0.022374654
-0.034836475 0.0789369 0.022233946 0.04822402 -0.05836969 -0.0065696 0.08458134 -0.04671579
-0.018087046 -0.0071840384 0.015720818 0.09843895 -0.014599562 0.08830778 -0.046691228 -0.05995343
-0.04340381 0.01457244 -0.008934893 0.06208668 -0.10221771 -0.03365213 0.06264509 -0.07775887
-0.015493608 0.027442707 -0.035909798 0.036072724 0.039454438 -0.025746455 0.046660006 0.066735774
0.12486313 0.044307865 0.0056464304 0.022452792 0.013287133 0.040514268 -0.057006717 -0.008973246
0.02133275 -0.020330632 -0.02846485 0.007898621 0.021403553 -0.07653329 -0.051270988 0.051064372
0.09397537 0.046717934 -0.021609377 0.01783096 0.03629645 -0.078709446 0.053118024 -0.072169274
-0.06335938 -0.07567481 -0.011383965 0.04340069 0.007619534 0.026830109 0.051480822 -0.08696752
-0.05973574 -0.016972104 -0.027418151 -0.014290747 -0.08433841 -0.050238997 0.011188562 -0.024691788
-0.031897433 -0.12152294 0.06457623 0.04897203 0.050796784 0.05508061 0.010558209 0.033232182
0.07916195 -0.0113258045 -0.07829396 0.10986498 -0.06333482 0.10068545 -0.03652592 0.057789043
0.059589382 0.0018192902 0.030022442 -0.017382927 -0.015737295 -0.016704349 -0.019405205 -0.049715374
0.03313873 -0.07919425 0.00037790835 -0.044772215 -0.01503968 -0.0070369327 0.0783622 -0.08174288
0.057992924 0.009384181 -0.029619293 -0.032614045 0.032563783 -0.08280606 0.033568136 -0.026032783
-0.016196406 -0.026855784 0.051901843 0.0070716683 -0.063530065 0.044957936 -0.10869777 -0.051201668
-0.021014674 0.014516408 0.042051528 0.008862158 -0.16389756 -0.1010222 0.05724416 -0.005004212
-0.052791752 0.04799726 0.0766829 -0.013409327 0.06729415 0.038107656 -0.053732824 -0.062200483
00000000: c1d2 e1bc 26cb 6abd a2a0 8bbd f660 d138
00000010: 950a 82bd 80ba ba3d 56f1 503d 2105 303c
00000020: 2c5a b73b 2b51 3fbe 559c b8bd 8cf9 c2bd
00000030: 7cf5 153c 4032 043d 6e3b 97bd f284 4f3d
00000040: 8baf ae3d 8bc6 8ebd bb0f 4fbd 131f 893d
00000050: 7d6f 53bd ff96 72bc a7c2 aebd 5bcd 403d
00000060: c600 50bc f53d 5d3d 2ac6 8f3d 7200 1e3d
00000070: b90a 883d 9c65 353d 0ff4 973d 6c36 163c
00000080: 9be8 dbbd c10e 683d 07d9 89bd a23a 8a3d
00000090: fcba 653d 7970 a5bd ac90 0dbd 1440 3fbd
000000a0: 4d8b 24bd 6041 8fbb 0abf d7bd c8b7 52bd
000000b0: 0310 19bd 0edf db3c 0875 523d 2cea c8bc
000000c0: 6167 7d3d 006d 8b3d 4714 95bd a956 46bd
000000d0: 1aa4 c83c 934a 823c d5ad 70bc d71c 1f3c
000000e0: 732c 74bd ad10 fcbc 9849 543d 1f97 80bd
000000f0: f24f c2bd d833 b93d 809e 613b 51c4 97bd
00000100: ab58 b63b 4833 513d d6bb ae3c a2f5 78bc
00000110: ca97 443c 847a d93d 0220 23bc 4bea 0ebd
00000120: faf5 093d b58f 6c3d 9895 5f3d 89b7 4bbd
00000130: 2252 053d a646 0c3e e458 65bd 6a60 f3bc
00000140: 224f 56bd e244 143d 5b98 2f3d 5d80 9abd
00000150: d722 4fba d411 f4bd f730 e53c f11c 183d
00000160: 2322 903d d546 89bd c057 79bb f96c 41bd
00000170: 87a3 d6bd 0780 973b 94e3 7d3c 4bf0 263d
00000180: 6551 843c d7b4 b9bc 2563 08bd eae0 74bd
00000190: e34e 193d e61c 3abb 9e64 a83c e7e2 163d
000001a0: 67e8 c3bc b40f 993d c5cc e53c 1ae7 8ebd
000001b0: 1ace 453c 4cdf 363d 3c8f 11be f11c 423d
000001c0: 4714 06bd 4d0f 6ebe 0e55 4bbd f551 69bd
000001d0: d96d 9e3d e321 0d3c 6cd0 b43c 0d4b b7bc
000001e0: b1b0 0ebd aba9 a13d f723 b63c 8d86 453d
000001f0: 0e15 6fbd cd45 d7bb fb38 ad3d 0e59 3fbd
00000200: 492b 94bc 1568 ebbb f2c8 803c 5c9a c93d
00000210: 0033 6fbc b6da b43d 4d3f 3fbd ba91 75bd
00000220: 32c8 31bd 3ec1 6e3c a863 12bc 9a4e 7e3d
00000230: 8557 d1bd d1d6 09bd 124c 803d 0b40 9fbd
00000240: e7d8 7dbc 87cf e03c 2716 13bd fec0 133d
00000250: fa9a 213d 3bea d2bc 901e 3f3d c4ac 883d
00000260: 3eb8 ff3d 2a7c 353d b105 b93b ebee b73c
00000270: 46b2 593c 4af2 253d e07f 69bd 8604 13bc
00000280: 05c2 ae3c 6d8c a6bc 1e2f e9bc 3869 013c
00000290: 8156 af3c 7cbd 9cbd 8701 52bd e028 513d
000002a0: 2976 c03d 4e5b 3f3d 2606 b1bc 3c12 923c
000002b0: 96ab 143d 6b32 a1bd 4992 593d 7ccd 93bd
000002c0: 90c2 81bd 65fb 9abd cf83 3abc ecc4 313d
000002d0: 49ad f93b d1ca db3c 8edd 523d 071c b2bd
000002e0: 77ad 74bd 1509 8bbc 089c e0bc bd23 6abc
000002f0: 9eb9 acbd 68c7 4dbd 3b50 373c 6f46 cabc
00000300: e2a6 02bd 05e1 f8bd 8b40 843d e596 483d
00000310: 4a10 503d 359c 613d 57fc 2c3c 781e 083d
00000320: a91f a23d de8f 39bc 9558 a0bd e400 e13d
00000330: b0b5 81bd 2c34 ce3d 349c 15bd 34b4 6c3d
00000340: ff13 743d 4075 ee3a a0f1 f53c a466 8ebc
00000350: 80eb 80bc 8fd7 88bc aaf7 9ebc 59a2 4bbd
00000360: 7abc 073d 9830 a2bd 0022 c639 1263 37bd
00000370: fd68 76bc 1296 e6bb 5c7c a03d d068 a7bd
00000380: fd89 6d3d 1cc0 193c 29a4 f2bc 4e96 05bd
00000390: 9a61 053d 3996 a9bd be7e 093d b442 d5bc
000003a0: 53ae 84bc a900 dcbc 0797 543d 74b9 e73b
000003b0: 0d1c 82bd d025 383d f09c debd d7b8 51bd
000003c0: f726 acbc 3ad6 6d3c 393e 2c3d 9632 113c
000003d0: c3d4 27be bae4 cebd da78 6a3d 5ffa a3bb
000003e0: 2a3c 58bd c698 443d ed0b 9d3d cbb2 5bbc
000003f0: 84d1 893d c616 1c3d f316 5cbd efc5 7ebd

fc5.bias f4 [64]
-0.017411625 -0.105570786 -0.06869613 -0.060964603 -0.02513077 -0.024960298 0.04570793 -0.017925449
-0.024305537 -0.07099697 0.08453109 0.114079244 0.045094647 -0.06368163 0.08231602 0.035297938
-0.0013862862 -0.018961506 0.066621505 0.035840433 0.052347735 -0.02378161 0.03174998 -0.055976227
-0.06391691 0.10203292 -0.09274165 0.0567435 0.022610351 0.027406378 0.060445443 -0.038407378
0.008457624 0.049219828 0.08423767 -0.08808128 -0.0601152 -0.048972365 0.09807495 -0.0034863323
0.036230884 -0.03875511 -0.0374667 0.04655683 0.053344145 -0.060920358 0.07269084 -0.094169386
-0.07704802 -0.037592217 -0.056952182 -0.0023932112 -0.07461773 -0.047243856 -0.008623306 -0.11145638
0.0565705 0.046518438 -0.08958714 0.006509166 -0.09812177 0.016920596 0.05834186 0.07225853
00000000: d3a2 8ebc 7f35 d8bd 8eb0 8cbd 05b6 79bd
00000010: 0bdf cdbc 8a79 ccbc 3d38 3b3d 64d8 92bc
00000020: 681c c7bc dc66 91bd a31e ad3d 61a2 e93d
00000030: 2ab5 383d 846b 82bd 4d95 a83d 9294 103d
00000040: 0cb4 b5ba 2955 9bbc db70 883d 6bcd 123d
00000050: 946a 563d a7d1 c2bc 440c 023d 5447 65bd
00000060: dee6 82bd a3f6 d03d 56ef bdbd df6b 683d
00000070: 5839 b93c 5783 e03c a495 773d 0e51 1dbd
00000080: d991 0a3c bb9a 493d cd84 ac3d f563 b4bd
00000090: 5b3b 76bd 3f97 48bd 85db c83d f37a 64bb
000000a0: d666 143d aebd 1ebd af76 19bd 60b2 3e3d
000000b0: 647f 5a3d a087 79bd efde 943d e1db c0bd
000000c0: 5acb 9dbd 4cfa 19bd b146 69bd 6cd7 1cbb
000000d0: 2ed1 98bd c682 41bd c448 0dbc 3e43 e4bd
000000e0: 78b6 673d 1e8a 3e3d 7679 b7bd d84a d53b
000000f0: 11f4 c8bd 109d 8a3c e0f7 6e3d 48fc 933d

output.weight f4 [1, 64]
-0.0251358 0.016225347 -0.09953909 -0.06826967 0.04682423 0.13019444 0.09801986 0.056496713
-0.07662037 -0.09293748 0.06640243 0.1092759 0.010484116 -0.04318581 -0.090697564 0.009990708
0.11654236 -0.055275127 0.03933918 0.08299238 0.0005549029 -0.0019229728 -0.081152126 0.041264325
-0.058546428 0.047003504 -0.0765101 -0.034564547 -0.01902272 -0.0352477 -0.05820707 -0.07846043
-0.096781604 -0.0041222344 0.055174932 0.06941629 -0.035457592 0.1124671 0.13486181 0.02246206
-0.015028267 -0.12741415 -0.07807151 -0.03094834 0.10009877 0.038418923 0.01695686 -0.00020548055
0.026706934 -0.133403 0.10403127 -0.07548137 -0.004327898 0.07878214 -0.012316154 0.03964443
0.06837102 0.101055115 0.11123142 0.050628055 -0.046965774 0.06313297 -0.09956513 0.040807787
00000000: 98e9 cdbc 05eb 843c 27db cbbd f8d0 8bbd
00000010: c4ca 3f3d b151 053e a3be c83d 1969 673d
00000020: 24eb 9cbd 0156 bebd fffd 873d 0bcc df3d
00000030: 92c5 2b3c 9be3 30bd a5bf b9bd 11b0 233c
00000040: c3ad ee3d 2c68 62bd 1f22 213d e9f7 a93d
00000050: e776 113a 430c fcba 1633 a6bd c804 293d
00000060: 61ce 6fbd bf86 403d 54b1 9cbd 8e93 0dbd
00000070: 89d5 9bbc e45f 10bd 896a 6ebd ddaf a0bd
00000080: 6f35 c6bd cf13 87bb 1cff 613d 212a 8e3d
00000090: fb3b 11bd 2755 e63d 3719 0a3e 5b02 b83c
000000a0: 1f39 76bc db78 02be f5e3 9fbd 6087 fdbc
000000b0: 9500 cd3d 295d 1d3d 1de9 8a3c 4476 57b9
000000c0: 80c8 da3c cc9a 08be 590e d53d fa95 9abd
000000d0: 0ad1 8dbb 8858 a13d b2c9 49bc 3362 223d
000000e0: 1b06 8c3d fcf5 ce3d 4ccd e33d 5d5f 4f3d
000000f0: 2f5f 40bd dc4b 813d cee8 cbbd 1126 273d
